Model/models/aug_100.pth (torch, 47488 bytes, 7 tensors)

conv1.weight f4 [10, 3, 3, 3]
-0.20294307 -0.08211186 0.09676893 0.0037516812 0.07497827 0.14309555 0.04600926 0.19924751
0.14427562 -0.2989125 -0.15541333 -0.2024087 -0.023391152 -0.14104572 0.1406315 -0.17082326
0.11255841 0.058470882 0.05473977 -0.16266432 0.019232245 -0.11053871 0.035916906 0.0029633334
-0.110271856 0.18907605 0.21551825 0.043357614 -0.22256035 -0.22031431 0.002813914 -0.20783532
0.011472148 -0.04361741 0.050395492 0.1299939 -0.13577352 0.03482968 0.1518449 -0.12830447
0.16038917 0.020313006 0.15520427 -0.06524426 -0.06419786 -0.028783735 -0.07599425 0.14246733
-0.047246553 0.10972314 0.16287552 -0.16370097 -0.16770077 -0.21363719 -0.14129807 -0.17929448
0.07921112 0.18657866 0.02094193 0.12823442 0.009066942 0.08843228 0.21733676 0.094709925
0.06322687 -0.20439349 -0.023521543 -0.06198101 -0.07000326 -0.22270334 0.09158283 -0.008996543
0.0027820307 -0.137823 -0.23016699 0.089461744 0.07926394 -0.019289127 -0.15297845 0.112558335
0.10574979 0.022494515 0.18732186 0.14176746 -0.17240249 0.040086064 -0.11321341 0.16655923
-0.12355552 -0.13611525 0.005066933 0.24131782 0.04362952 -0.03292678 0.25284034 -0.08023407
0.037600942 0.1870442 0.0028534424 -0.19610171 -0.23433276 -0.09106828 -0.096739836 -0.20229256
0.08752425 0.17310956 -0.08625006 0.07722342 -0.18291493 -0.15594621 -0.024760844 -0.020291222
-0.11217514 -0.19351006 -0.050191112 -0.16001602 -0.05203741 0.013176779 0.2127609 0.040566847
0.13273455 0.19378573 0.05650083 -0.119861536 0.20478903 0.16084717 0.35778815 0.3560829
0.42680323 0.32021976 0.32061464 0.06528367 0.30852178 0.016053049 0.055523183 0.20926645
0.25243717 0.1674209 0.20841269 -0.12743892 0.016794635 0.18713187 -0.053403396 0.09684481
-0.1060639 1.5433741e-05 -0.10076595 0.054032497 0.07025178 -0.03191489 -0.343802 -0.2774405
-0.10713656 0.18773197 0.26014003 0.2605516 -0.0038644942 0.17917696 0.24376968 0.05195655
-0.11929647 -0.17818819 0.04839719 0.19590041 -0.012620112 0.25578147 0.0032791686 0.13518164
0.13987492 0.101010524 -0.2029934 0.22686747 0.13421 0.0065514636 0.14267303 -0.07673262
0.051372334 -0.25004214 -0.16815653 -0.4052116 0.19377242 0.06852347 0.30747125 0.056464344
-0.15089977 -0.19081447 -0.23265086 -0.22153735 -0.18224712 -0.15755583 -0.03427923 -0.13373505
0.025553398 -0.015349358 -0.08798132 -0.08811869 0.07802804 0.07262511 0.15711649 -0.015128883
0.046870243 0.017288186 -0.13853535 0.06783039 0.09494732 -0.0990988 0.03211228 -0.050383814
0.12391542 -0.113866664 -0.12548515 -0.16027586 -0.009649574 -0.03612784 0.12348195 0.021302486
-0.06317349 0.037602454 -0.13200495 0.13670403 0.11958425 0.041021124 0.21735303 0.051479947
0.042006064 0.09681315 0.0663143 0.15153511 0.14322782 0.072619006 0.17615448 0.12575427
-0.08403125 -0.009677753 -0.032315888 0.19369489 0.104000136 0.122092254 0.35405776 0.22497796
0.2960797 0.3761958 0.27197155 0.29104266 0.0971882 0.18324365 0.15973873 0.19961578
-0.0020948234 -0.2023019 -0.11752927 0.032010574 0.1633699 0.2066489 0.30001408 0.070548646
00000000: 4fd0 4fbe 432a a8bd ca2e c63d c4de 753b
00000010: 358e 993d a487 123e 3574 3c3d 8a07 4c3e
00000020: fdbc 133e 0f0b 99be ac24 1fbe 3a44 4fbe
00000030: cd9e bfbc 4a6e 10be b401 103e 4bec 2ebe
00000040: 0685 e63d 2a7f 6f3d cf36 603d 7a91 26be
00000050: f18c 9d3c 1f62 e2bd 9b1d 133d 7c34 423b
00000060: 36d6 e1bd 279d 413e d1b0 5c3e c197 313d
00000070: dce6 63be 139a 61be a569 383b c8d2 54be
00000080: adf5 3b3c 2ba8 32bd 816b 4e3d 1f1d 053e
00000090: 3708 0bbe 91a9 0e3d 3b7d 1b3e 3f62 03be
000000a0: 0f3d 243e 7667 a63c deed 1e3e c89e 85bd
000000b0: 2b7a 83bd decb ebbc e0a2 9bbd f5e2 113e
000000c0: 9a85 41bd 87b6 e03d d7c8 263e 3aa1 27be
000000d0: c0b9 2bbe b5c3 5abe 71b0 10be f998 37be
000000e0: 7139 a23d 7a0e 3f3e 698e ab3c e24f 033e
000000f0: 838d 143c fc1b b53d 878d 5e3e 47f7 c13d
00000100: 177d 813d 874c 51be 40b0 c0bc cddf 7dbd
00000110: df5d 8fbd 580c 64be c78f bb3d 3c66 13bc
00000120: bb52 363b 7921 0dbe e5b0 6bbe b837 b73d
00000130: 2255 a23d 3b04 9ebc 62a6 1cbe fc84 e63d
00000140: 5993 d83d 6b46 b83c 4dd1 3f3e 7d2b 113e
00000150: 478a 30be 4931 243d 6fdc e7bd 818e 2a3e
00000160: ad0a fdbd cc61 0bbe 8408 a63b 051c 773e
00000170: deb4 323d 3bde 06bd 4a74 813e c351 a4bd
00000180: 7203 1a3d 8488 3f3e d200 3b3b e3ce 48be
00000190: edf4 6fbe 0282 babd 891f c6bd c825 4fbe
000001a0: ea3f b33d a243 313e dfa3 b0bd 5027 9e3d
000001b0: 0d4e 3bbe 5db0 1fbe 41d7 cabc c739 a6bc
000001c0: 14bc e5bd 8027 46be 3295 4dbd 3ddb 23be
000001d0: 2e25 55bd 6be3 573c fedd 593e 6c29 263d
000001e0: 91eb 073e c46f 463e 6a6d 673d f779 f5bd
000001f0: 37b4 513e 1fb5 243e 0230 b73e 7f50 b63e
00000200: f485 da3e d8f3 a33e 9a27 a43e 72b3 853d
00000210: 91f6 9d3e af81 833c 476c 633d f249 563e
00000220: 723f 813e 6270 2b3e 236a 553e 597f 02be
00000230: e794 893c 7f9f 3f3e 85bd 5abd 9256 c63d
00000240: 0838 d9bd b577 8137 615e cebd 2e51 5d3d
00000250: 2ae0 8f3d 30b9 02bd d106 b0be ae0c 8ebe
00000260: 6a6a dbbd cf3c 403e 1331 853e 0567 853e
00000270: 7443 7dbb 2a7a 373e c29e 793e 64d0 543d
00000280: b551 f4bd f776 36be 223c 463d 1e9a 483e
00000290: 96c4 4ebc caf5 823e 52e7 563b 0e6d 0a3e
000002a0: 5f3b 0f3e 9bde ce3d 80dd 4fbe f24f 683e
000002b0: 596e 093e a9ad d63b e118 123e fe25 9dbd
000002c0: cc6b 523d 8605 80be 3a31 2cbe e577 cfbe
000002d0: 476c 463e 0856 8c3d df6c 9d3e 2847 673d
000002e0: 7885 1abe de64 43be 073c 6ebe b0da 62be
000002f0: fd9e 3abe 5156 21be 6168 0cbd d7f1 08be
00000300: 5c55 d13c e07b 7bbc 8d2f b4bd 9277 b4bd
00000310: 2acd 9f3d 79bc 943d 25e3 203e 22df 77bc
00000320: 03fb 3f3d f49f 8d3c 36dc 0dbe a9ea 8a3d
00000330: be73 c23d 50f4 cabd 2b88 033d 425f 4ebd
00000340: 5ec7 fd3d ed32 e9bd 2e7f 00be 5b1f 24be
00000350: 3f19 1ebc c9fa 13bd 1be4 fc3d 8d82 ae3c
00000360: 1a61 81bd 0805 1a3d 4e2c 07be 24fc 0b3e
00000370: 96e8 f43d c405 283d cb91 5e3e a3dc 523d
00000380: 8d0e 2c3d f945 c63d cbcf 873d 052c 1b3e
00000390: 50aa 123e 46b9 943d d761 343e bac5 003e
000003a0: 9318 acbd 708f 1ebc aa5d 04bd f457 463e
000003b0: 06fe d43d 810b fa3d 0f47 b53e 9f60 663e
000003c0: c297 973e bc9c c03e db3f 8b3e 8b03 953e
000003d0: 9b0a c73d 39a4 3b3e 8d92 233e 1468 4c3e
000003e0: 4e49 09bb 3b28 4fbe 30b3 f0bd 851d 033d
000003f0: 704a 273e c59b 533e 729b 993e cf7b 903d

conv1.bias f4 [10]
0.12153606 -0.19839352 0.034534287 -0.10781579 0.03919542 -0.17728403 0.05875932 0.24398252
-0.1479364 0.0435982
00000000: e6e7 f83d ac27 4bbe d373 0d3d 86ce dcbd
00000010: 608b 203d f289 35be 9dad 703d 8ed6 793e
00000020: a47c 17be 0794 323d

conv2.weight f4 [10, 10, 3, 3]
0.026552586 0.054473776 -0.14653139 -0.26082316 -0.33686188 -0.3307506 -0.26242805 -0.2543242
-0.38237643 0.039966743 0.090095304 0.11241956 -0.09007748 0.029298207 -0.0584708 -0.09977834
0.020754399 -0.014144978 0.018950066 -0.10863007 -0.085027575 -0.065586664 -0.22810945 -0.118704654
-0.20587859 -0.2013826 -0.041516203 -0.19646555 -0.2972398 -0.22071353 -0.20413722 -0.23633152
-0.28820533 -0.21889138 -0.33504948 -0.20041035 0.25484365 0.19162142 0.2839561 0.17588933
0.3279833 0.2782758 0.13330932 0.26124597 0.17705706 0.015918072 0.09541481 -0.05665956
0.1411854 0.094525255 0.0860199 0.06725584 0.08170793 -0.0024661603 -0.36767876 -0.36426342
-0.27690917 -0.22422047 -0.39605603 -0.18314433 -0.3281166 -0.15735342 -0.13280913 0.020935843
0.10228074 0.197785 0.12752178 0.13579252 0.18230052 0.03114119 0.037145916 0.1428518
0.17162031 0.116880305 0.07201642 0.20331359 0.060211457 0.12880456 0.15971382 0.06603889
0.024364838 -0.35423923 -0.38550767 -0.3483953 -0.21469532 -0.21420123 -0.3130114 -0.19477178
-0.08919202 -0.17702432 0.3683713 0.35311255 0.22422644 0.33973533 0.17289263 0.09336293
0.05489685 -0.10881783 -0.17385907 0.080348104 0.061233543 -0.10964684 -0.11467197 -0.012930425
0.07972875 -0.113785595 0.073442824 0.06880858 -0.0076816487 0.16887675 0.042910133 0.14249824
-0.005195797 -0.067511804 -0.14876227 -0.05636474 -0.08424335 -0.06591916 0.031612102 -0.145722
-0.09651717 -0.11585673 -0.08301839 0.117894754 -0.07019185 -0.12004582 0.04858446 0.24648702
0.3636131 0.12056693 0.20200966 0.2428176 0.23120318 0.2576485 0.35751608 -0.009447614
-0.00030704887 0.2691487 -0.05851533 0.06764727 0.20609967 0.2321969 0.30950558 0.41232735
-0.32253745 -0.24971977 -0.2858103 -0.45068428 -0.30307427 -0.2855745 -0.2580127 0.028321743
0.10078425 -0.043974698 -0.04639356 -0.076593146 0.055024546 -0.033496715 0.0018841857 -0.033874806
0.010245252 -0.056606058 0.011116352 0.2568073 0.29323518 0.084121235 0.1400187 0.35565716
0.123778075 0.21692178 0.3107635 -0.18500775 -0.27280098 -0.3104067 -0.435086 -0.28262934
-0.28301272 0.046691336 0.067733556 0.029777762 -0.09772541 -0.024455568 -0.080655955 0.044886015
-0.06445393 -0.056801155 0.011821419 -0.041100174 0.050643556 0.097657315 -0.0614699 -0.104004145
0.0032813698 -0.067651026 0.0042204633 0.09138832 -0.03967841 -0.07314284 -0.08923171 -0.05044204
-0.04669131 -0.009357651 -0.07605579 0.036022764 -0.05505408 -0.10805377 -0.100565836 -0.023503795
-0.025455534 0.037485845 0.09865714 -0.04972492 -0.100449026 0.061440803 0.03597968 -0.05627818
-0.017762206 -0.06392108 -0.083492994 -0.025228873 -0.08183271 0.061872758 0.01755883 -0.01569918
-0.09889293 0.054568984 -0.042557426 -0.0880745 0.009870522 -0.08623903 -0.09476432 -0.030140113
-0.08995213 -0.03600239 0.05041788 -0.03218837 -0.10013228 0.09103914 -0.09370185 0.036337994
0.05579812 0.060190864 -0.032654397 -0.027750619 -0.050207045 -0.055898093 -0.06758699 -0.06310885
-0.09106598 0.013834506 -0.0046797916 0.035182156 -0.08745521 -0.11801584 -0.0006970972 0.054489505
00000000: cf84 d93c e51f 5f3d 530c 16be 9d8a 85be
00000010: 2979 acbe 2558 a9be f85c 86be c836 82be
00000020: d8c6 c3be 2bb4 233d e383 b83d 3a3c e63d
00000030: 8b7a b8bd cb02 f03c 147f 6fbd 9658 ccbd
00000040: 2105 aa3c 56c0 67bc 2b3d 9b3c 7179 debd
00000050: f022 aebd 4d52 86bd 8695 69be 6d1b f3bd
00000060: d6d1 52be 3e37 4ebe e50c 2abd 442e 49be
00000070: d12f 98be ba02 62be 5909 51be e400 72be
00000080: a68f 93be 1025 60be 9b8b abbe 5f38 4dbe
00000090: de7a 823e 6838 443e b262 913e 551c 343e
000000a0: 6ded a73e 2a7a 8e3e 3d82 083e 08c2 853e
000000b0: 724e 353e 9e66 823c d768 c33d db13 68bd
000000c0: e892 103e 7596 c13d 342b b03d 6ebd 893d
000000d0: 7d56 a73d 4e9f 21bb 6440 bcbe bc80 babe
000000e0: 0ac7 8dbe 0d9a 65be dbc7 cabe 308a 3bbe
000000f0: e6fe a7be 4121 21be 1eff 07be a581 ab3c
00000100: 9178 d13d 2788 4a3e 1295 023e 320d 0b3e
00000110: fdac 3a3e cf1b ff3c 5126 183d be47 123e
00000120: 3cbd 2f3e f15e ef3d 587d 933d 7031 503e
00000130: 4aa0 763d 58e5 033e 058c 233e 663f 873d
00000140: c598 c73c d85e b5be 4361 c5be de60 b2be
00000150: 17d9 5bbe 9157 5bbe 0843 a0be 4172 47be
00000160: 4eaa b6bd dd45 35be 2a9b bc3e 2bcb b43e
00000170: 9e9b 653e caf1 ad3e c40a 313e 1035 bf3d
00000180: 85db 603d e2db debd 1d08 32be 8c8d a43d
00000190: 06d0 7a3d 868e e0bd 23d9 eabd 22da 53bc
000001a0: d448 a33d 6c08 e9bd 3169 963d 83eb 8c3d
000001b0: 57b6 fbbb 07ee 2c3e 89c2 2f3d 0feb 113e
000001c0: 8141 aabb a143 8abd 2355 18be b7de 66bd
000001d0: c787 acbd a000 87bd b17b 013d 2638 15be
000001e0: cbaa c5bd 4b46 edbd 8c05 aabd ce72 f13d
000001f0: bfc0 8fbd 95da f5bd 8000 473d 1867 7c3e
00000200: 7f2b ba3e cbeb f63d 9fdb 4e3e 2da5 783e
00000210: 87c0 6c3e 81ea 833e 590c b73e 2aca 1abc
00000220: 67fb a0b9 dccd 893e c5ad 6fbd a78a 8a3d
00000230: cb0b 533e 06c5 6d3e 8477 9e3e 921c d33e
00000240: a123 a5be 8ab6 7fbe ba55 92be 17c0 e6be
00000250: 8d2c 9bbe d236 92be 3e1a 84be 0003 e83c
00000260: f967 ce3d d01e 34bd 2c07 3ebd dedc 9cbd
00000270: 6b61 613d da33 09bd c8f6 f63a 4fc0 0abd
00000280: b4db 273c c1db 67bd 5c21 363c 3f7c 833e
00000290: ec22 963e c147 ac3d 1061 0f3e b218 b63e
000002a0: 5c7f fd3d be20 5e3e 651c 9f3e ac72 3dbe
000002b0: 92ac 8bbe a1ed 9ebe 98c3 debe cbb4 90be
000002c0: 0be7 90be 6a3f 3f3d e4b7 8a3d 7ef0 f33c
000002d0: 4224 c8bd 0b57 c8bc f32e a5bd 66da 373d
000002e0: 6c00 84bd 54a8 68bd a0ae 413c a858 28bd
000002f0: 9e6f 4f3d 8f00 c83d ddc7 7bbd 2000 d5bd
00000300: 400c 573b 9f8c 8abd d04b 8a3b cd29 bb3d
00000310: d485 22bd eacb 95bd 1dbf b6bd 509c 4ebd
00000320: 633f 3fbd d550 19bc 23c3 9bbd 9b8c 133d
00000330: 6380 61bd 4c4b ddbd 76f5 cdbd 088b c0bc
00000340: 2088 d0bc c28a 193d c10c ca3d 5cac 4bbd
00000350: 38b8 cdbd 5aa9 7b3d 6e5f 133d f383 66bd
00000360: 0c82 91bc 0ee9 82bd 60fe aabd c8ac cebc
00000370: e897 a7bd 4a6e 7d3d 89d7 8f3c 919b 80bc
00000380: 6088 cabd ba83 5f3d b250 2ebd 6760 b4bd
00000390: f8b7 213c 179e b0bd cc13 c2bd 66e8 f6bc
000003a0: d338 b8bd 3e77 13bd fb82 4e3d f4d7 03bd
000003b0: 2712 cdbd bb72 ba3d c1e6 bfbd 26d7 143d
000003c0: 928c 643d b28a 763d 9ec0 05bd 4455 e3bc
000003d0: e7a5 4dbd 66f5 64bd 0c6b 8abd 363f 81bd
000003e0: cd80 babd 20aa 623c f058 99bb 2a1b 103d
000003f0: b81b b3bd 4ab2 f1bd 67bd 36ba 6330 5f3d

conv2.bias f4 [10]
0.055628892 -0.066220954 -0.04110804 -0.12383732 0.14785257 -0.11433814 0.04416042 -0.1435027
0.07404619 -0.06685886
00000000: 1fdb 633d da9e 87bd e760 28bd 6c9e fdbd
00000010: aa66 173e 1d2a eabd 8ee1 343d 5ff2 12be
00000020: 87a5 973d 4ced 88bd

conv3.weight f4 [10, 10, 3, 3]
-0.09980181 -0.08804375 -0.007828238 -0.06363188 0.07102697 -0.010293819 -0.1040346 -0.04863013
-0.0066769198 -0.08147373 -0.031398736 0.035567164 -0.03917961 -0.09640872 0.006352045 0.010593556
-0.015922513 -0.08861164 0.07282858 -0.057600826 -0.060535662 0.07285864 -0.0812491 0.03241036
-0.037883148 -0.08558297 0.09016023 -0.04012365 0.07918043 -0.046321776 0.06310425 -0.019896783
0.0212067 0.09958043 -0.076300405 0.054719515 -0.06033922 -0.044390973 0.0041291732 0.014891777
-0.094240606 0.0536869 0.031828266 -0.08094446 0.017571775 -0.07735598 0.07012103 -0.08446859
0.09660626 0.043544136 0.08503071 -0.042640008 0.01029218 -0.09221805 -0.097320236 0.026609087
-0.108081125 0.055975772 0.031273883 -0.061033044 -0.03402347 -0.05339344 -0.056727502 -0.051766593
-0.06037859 0.0017635607 0.086012274 -0.09579072 -0.09268276 0.027962584 -0.08573911 -0.054981142
-0.043440413 -0.10522268 -0.09528299 0.06845959 0.022679275 0.026970258 0.04980788 -0.03574695
-0.0091290055 0.03160863 -0.09254835 -0.013266147 -0.10141878 -0.030819355 -0.11721634 -0.027534194
-0.014428882 0.035942934 0.022359015 0.11238575 0.0870305 -0.0069409534 0.014390729 -0.070061095
0.012593622 -0.19460723 -0.14014299 0.0007887589 0.0027992607 -0.03225011 0.040364135 -0.05293936
0.08031243 -0.013464125 -0.14272791 0.09172304 0.0101567805 -0.0016853809 0.03307862 -0.098245114
0.009329677 -0.08700208 -0.09276655 0.018510886 -0.010942653 0.09913907 -0.05091563 0.019837104
-0.03662891 -0.06173789 -0.05775368 0.016469456 -0.03155238 -0.048037115 -0.022740187 0.014637751
-0.010886646 0.14822194 0.0026354697 0.14313816 0.14484501 0.16320074 0.16006996 0.024166176
0.12283472 -0.04175915 0.042444985 0.0071650282 -0.018375345 0.01386894 0.012098516 -0.036135726
0.049552053 -0.15077719 -0.070877925 0.06468802 0.07345339 0.031122085 0.10239784 0.03514199
0.10349148 0.04794248 -0.060078252 0.040335868 -0.10916936 -0.09456408 -0.14308907 -0.07579904
0.03082232 0.043601222 0.19070795 0.119331904 0.09371482 -0.0051567126 0.16964169 -0.018944602
-0.049496286 -0.17101774 -0.09947675 -0.03956684 0.041239265 0.026414638 0.064979635 0.16735132
0.030764904 -0.113178015 0.07091172 0.111602075 -0.11111064 -0.00068798114 -0.012135099 0.06910784
0.08065402 0.050152995 0.09113521 0.10504562 -0.03153344 0.027986644 0.014469731 -0.031400766
0.09591862 0.028254565 0.10167075 0.037695203 0.09112424 0.032142166 0.010723262 0.009107925
0.07229363 0.102924965 -0.10245789 0.08287721 0.082968734 -0.08048542 0.027960904 0.02510802
-0.03663013 -0.019136874 0.004144676 -0.09117662 0.095669396 -0.0693491 -0.092637114 0.019848514
0.04737245 -0.12779684 -0.07549368 -0.12009076 -0.17999499 -0.09623163 -0.22687836 -0.23701602
-0.047108546 -0.07554896 -0.059262816 -0.047747456 0.008639585 0.06278492 -0.07090723 0.026699398
-0.1018996 0.058177773 -0.16178866 -0.24136043 -0.17804582 -0.14749865 -0.12279884 -0.159152
-0.036190238 -0.101528965 -0.08587052 -0.082700744 -0.049927104 0.10735852 0.05684304 0.07630233
0.015302885 0.07018254 0.14785121 0.07418917 5.8150734e-05 -0.044112694 0.07990223 0.06821398
00000000: e464 ccbd 4850 b4bd 0342 00bc 6e51 82bd
00000010: 9776 913d 68a7 28bc 1810 d5bd 6330 47bd
00000020: 10ca dabb b3db a6bd f69b 00bd e0ae 113d
00000030: cc7a 20bd ef71 c5bd d124 d03b 9890 2d3c
00000040: ee6f 82bc 057a b5bd 2727 953d d8ee 6bbd
00000050: 3ef4 77bd e936 953d ee65 a6bd bac0 043d
00000060: 5c2b 1bbd 2046 afbd eda5 b83d b258 24bd
00000070: 5929 a23d e7bb 3dbd cd3c 813d 94fe a2bc
00000080: acb9 ad3c d3f0 cb3d 6343 9cbd 9221 603d
00000090: 4226 77bd 4fd3 35bd 044e 873b a4fc 733c
000000a0: 3801 c1bd cbe6 5b3d 5b5e 023d 36c6 a5bd
000000b0: aff2 8f3c d06c 9ebd 9d9b 8f3d defd acbd
000000c0: 81d9 c53d 565b 323d 9524 ae3d 4aa7 2ebd
000000d0: 88a0 283c d1dc bcbd d54f c7bd 4dfb d93c
000000e0: a359 ddbd da46 653d 0b19 003d c9fd 79bd
000000f0: 325c 0bbd 14b3 5abd 195b 68bd 3509 54bd
00000100: 8a4f 77bd 4727 e73a 3427 b03d ed2d c4bd
00000110: 75d0 bdbd ca11 e53c fd97 afbd e833 61bd
00000120: 93ee 31bd fd7e d7bd ba23 c3bd 8b34 8c3d
00000130: e3c9 b93c bbf0 dc3c 5903 4c3d 656b 12bd
00000140: d391 15bc 0d78 013d fd89 bdbd 415a 59bc
00000150: a6b4 cfbd df78 fcbc 1f0f f0bd 648f e1bc
00000160: 1e67 6cbc e638 133d 412a b73c 802a e63d
00000170: 0c3d b23d f070 e3bb 18c7 6b3c 317c 8fbd
00000180: 7b55 4e3c 1e47 47be a581 0fbe b7c4 4e3a
00000190: cd73 373b b118 04bd dd54 253d f1d6 58bd
000001a0: d87a a43d a298 5cbc 4427 12be 4ad9 bb3d
000001b0: a068 263c 00e8 dcba 727d 073d bc34 c9bd
000001c0: 80db 183c 262e b2bd 64fc bdbd 24a4 973c
000001d0: d048 33bc 6d09 cb3d e88c 50bd 6c81 a23c
000001e0: 3208 16bd dfe0 7cbd 1f8f 6cbd f4ea 863c
000001f0: 123d 01bd 91c2 44bd a149 babc 2dd3 6f3c
00000200: e75d 32bc 7ec7 173e d8b7 2c3b cf92 123e
00000210: 4052 143e 181e 273e 61e9 233e 25f8 c53c
00000220: c590 fb3d a40b 2bbd cbda 2d3d 9dc8 ea3b
00000230: e487 96bc 8d3a 633c db38 463c 0e03 14bd
00000240: 18f7 4a3d 5665 1abe 7228 91bd 277b 843d
00000250: bb6e 963d bef3 fe3c f5b5 d13d 0cf1 0f3d
00000260: 57f3 d33d 555f 443d 9d14 76bd 3937 253d
00000270: 2f94 dfbd d0aa c1bd f185 12be 873c 9bbd
00000280: 177f fc3c 3297 323d f248 433e 4964 f43d
00000290: 8eed bf3d a4f9 a8bb 8db6 2d3e b631 9bbc
000002a0: 9ebc 4abd 461f 2fbe 77ba cbbd d710 22bd
000002b0: 81ea 283d 8363 d83c 0b14 853d 255e 2b3e
000002c0: ae06 fc3c e0c9 e7bd 2a3a 913d a18f e43d
000002d0: fa8d e3bd a259 34ba 4bd2 46bc 6988 8d3d
000002e0: ef2d a53d 3a6d 4d3d 19a5 ba3d 2822 d73d
000002f0: 3529 01bd 3f44 e53c 7312 6d3c 179e 00bd
00000300: fb70 c43d 1e76 e73c c138 d03d 4966 1a3d
00000310: 589f ba3d 81a7 033d 9fb0 2f3c 6839 153c
00000320: af0e 943d 53ca d23d 71d5 d1bd 87bb a93d
00000330: 83eb a93d 8ad5 a4bd 440e e53c 56af cd3c
00000340: 7a09 16bd efc4 9cbc 10d0 873b cfba babd
00000350: 51ee c33d e706 8ebd 87b8 bdbd 5a99 a23c
00000360: 9d09 423d 2ddd 02be 6e9c 9abd 25f2 f5bd
00000370: 9b50 38be 1715 c5bd cd52 68be 54b4 72be
00000380: e4f4 40bd 6ab9 9abd 91bd 72bd d692 43bd
00000390: 0c8d 0d3c 6195 803d cf37 91bd b2b8 da3c
000003a0: bdb0 d0bd d14b 6e3d edab 25be 3027 77be
000003b0: a551 36be e309 17be f57d fbbd bef8 22be
000003c0: 373c 14bd 6bee cfbd e2dc afbd 025f a9bd
000003d0: 5d80 4cbd c9de db3d 3fd4 683d 6544 9c3d
000003e0: f4b8 7a3c ddbb 8f3d 4f66 173e 7ef0 973d
000003f0: e0e6 7338 83af 34bd c8a3 a33d c5b3 8b3d

conv3.bias f4 [10]
-0.09246271 -0.112335965 0.04091483 -0.12739901 -0.26213044 0.1187128 -0.08609469 0.18326941
-0.02532877 0.1190745
00000000: 175d bdbd 6610 e6bd 4f96 273d e374 02be
00000010: f635 86be b21f f33d 6a52 b0bd faaa 3b3e
00000020: 487e cfbc 55dd f33d

fc1.weight f4 [1, 9000]
0.0033656852 0.005924401 0.008249047 -0.002342293 0.0090812715 0.008905106 0.005316076 -0.0037002754
0.0022655614 -0.0021542683 0.005609791 -0.002637228 0.00051340554 -0.009816874 0.00018242933 0.00093195215
0.004104999 0.0017039087 0.008351822 -0.009851709 0.0016878555 -0.0009212438 -0.003847884 0.0042603957
0.0058522755 0.0060228882 -0.0083524175 -0.00024745148 0.0031234138 -0.0028069615 0.0033684513 0.0046088584
-0.0066050515 -0.008845285 0.0034636846 -0.0072934814 0.0071263844 -0.006732283 -0.010185677 -3.721565e-05
0.00029912125 -0.004624408 0.001841628 0.006125669 -0.008450301 0.0023823446 -0.0061997953 0.00093432236
0.007120312 -0.001187318 0.002335608 -0.007876989 -0.0031335102 0.008273159 0.0017705625 -0.0009110179
0.0047311503 -0.0017504962 -0.0049652015 -0.00079129636 0.0067290952 0.0008775247 -0.005596155 -0.008217811
-0.009391861 -0.007984152 -0.0004590284 -0.0030691903 -0.00015764125 -0.007297465 -0.0065446137 0.0062307706
0.008071295 -0.006386216 0.0052278237 0.003923529 0.0067243828 0.0017901314 0.00062367506 -0.0017307708
0.004121545 0.0033886107 0.009474945 -0.007997718 0.009468677 -0.0012851255 0.0049632136 0.0072389683
-0.004019652 -0.00028887577 -0.004931009 0.0054685855 0.003980004 -0.0059124078 0.0074903155 0.009964139
0.009221871 0.009140168 0.009749261 -0.0033662762 -0.006917949 -0.0047870595 0.009556319 0.007216693
-0.004592789 0.0030972194 -0.004561833 0.0085035665 -0.00509932 -0.00718401 -0.0034547667 0.00993462
0.0013051052 0.006160545 0.005474179 -0.0019872226 0.008749635 0.0051054927 -0.0038584583 0.0016462244
-0.0034068697 0.0069793025 0.00879318 0.0068405187 -0.0042695547 0.009946267 0.003612197 -0.0017667878
0.0059635127 0.00031440053 -0.0023293104 -0.00071085896 -0.009993339 0.009791656 -0.0039109 0.0077787293
0.0039297566 0.008101585 -0.0073918793 0.006021072 0.0072812056 -0.0069096526 0.0033091307 -0.0012292294
-0.0029625795 0.007617452 -0.0038531832 0.0010872455 0.0074095903 -0.008016842 -0.0055221124 0.0060623167
0.0044152234 -0.00029828493 -0.0022953637 -0.009254466 -0.00017948262 -0.008713929 0.007491729 0.0032105623
-0.0008852193 0.0013650525 0.008236933 0.0028194608 -0.0055187275 -0.003668053 0.009796805 0.0039494066
0.0042584846 0.006471726 -2.1945685e-05 0.0059147635 -0.003798007 0.0052445615 0.007977308 -0.0011614161
-0.00059817825 0.009774198 -0.00073065236 -0.00292541 0.007161687 -0.003330925 -0.007886396 0.0038410835
-0.008747346 -0.0011358587 -9.584241e-06 -0.0065760757 0.009180362 0.0007270165 -0.009437154 0.009148668
-0.00032118056 0.0059828376 0.0010763267 0.00043808762 0.0012837471 0.0022672452 0.007386516 0.008431814
-0.0033018515 -0.001785472 -0.0020296099 -0.010250055 0.002246146 0.007835788 0.0058317287 9.567849e-05
0.0056922967 -0.0063587963 -0.0049586613 -0.0054592486 0.00037846807 -0.0038292492 -0.001676661 -0.00819266
-0.006091143 -0.010251698 0.005439411 0.01047819 0.010516 -0.002852966 0.0013403697 -0.0050794748
0.0017835684 -0.00014380366 -0.004651725 0.006114929 0.0007493086 -0.0024400074 -0.0063906116 -0.0046097315
-0.004494282 0.0070971576 -0.007572394 -0.009507527 -0.0058892285 0.009697559 -0.009995404 0.007018267
0.0030580861 0.0054758927 -0.008073032 0.004710093 -0.01032193 0.0030336566 -0.0035911868 -0.009330539
0.0033845557 -0.009038507 -0.0018085353 0.006773929 -0.0006527398 0.0073882593 -0.007018402 0.00077027734
00000000: d492 5c3b 7a21 c23b 0327 073c 2881 19bb
00000010: 9dc9 143c b9e6 113c 7a32 ae3b 5280 72bb
00000020: d079 143b a02e 0dbb 56d2 b73b 58d5 2cbb
00000030: 1096 063a f4d6 20bc 804a 3f39 404e 743a
00000040: 3a83 863b b055 df3a 15d6 083c 1069 21bc
00000050: 083b dd3a a07f 71ba c82c 7cbb ca9a 8b3b
00000060: 72c4 bf3b a65b c53b 94d8 08bc 60bc 81b9
00000070: 30b2 4c3b 00f5 37bb 3cc1 5c3b e805 973b
00000080: 306f d8bb d0eb 10bc fcfe 623b 28fe eebb
00000090: 7284 e93b 7c9a dcbb d3e1 26bc 0018 1cb8
000000a0: 60d3 9c39 5988 97bb c862 f13a d6b9 c83b
000000b0: 2273 0abc 1c21 1c3b a727 cbbb 50ed 743a
000000c0: 8251 e93b c89f 9bba 0011 193b 7d0e 01bc
000000d0: 945b 4dbb 258c 073c 3812 e83a 60d1 6eba
000000e0: c407 9b3b e870 e5ba 21b3 a2bb 006f 4fba
000000f0: be7f dc3b b009 663a f35f b7bb ffa3 06bc
00000100: 52e0 19bc f6cf 02bc c0a9 f0b9 7824 49bb
00000110: 804c 25b9 931f efbb 3374 d6bb 7e2b cc3b
00000120: 773d 043c 7643 d1bb 2a4e ab3b f290 803b
00000130: 3658 dc3b d8a2 ea3a 207e 233a 08db e2ba
00000140: 060e 873b 7413 5e3b cd3c 1b3c dc08 03bc
00000150: 8322 1b3c a871 a8ba 74a2 a23b de34 ed3b
00000160: 49b7 83bb 4074 97b9 4d94 a1bb d231 b33b
00000170: b26a 823b dfbc c1bb 5271 f53b a140 233c
00000180: 5517 173c a5c0 153c 5dbb 1f3c be9c 5cbb
00000190: f6af e2bb c4dc 9cbb 1b92 1c3c 027a ec3b
000001a0: 1b7f 96bb b8fa 4a3b 6e7b 95bb 8b52 0b3c
000001b0: 3218 a7bb d867 ebbb 5e69 62bb d1c4 223c
000001c0: 1010 ab3a 66de c93b be60 b33b 103c 02bb
000001d0: a15a 0f3c fa4b a73b 30de 7cbb 20c6 d73a
000001e0: ca45 5fbb a2b2 e43b 4511 103c 6e26 e03b
000001f0: 9fe7 8bbb abf5 223c 9cba 6c3b 9093 e7ba
00000200: 9269 c33b 20d6 a439 58a7 18bb f058 3aba
00000210: 1abb 23bc 2f6d 203c 0227 80bb b6e4 fe3b
00000220: 30c5 803b 83bc 043c 9437 f2bb 6a4c c53b
00000230: 2e97 ee3b 5e6a e2bb 00de 583b 181e a1ba
00000240: d627 42bb d29b f93b b085 7cbb e881 8e3a
00000250: 26cc f23b 1359 03bc d6f2 b4bb 66a6 c63b
00000260: 94ad 903b 2063 9cb9 d06d 16bb 0ba0 17bc
00000270: 8033 3cb9 dec4 0ebc 2e7d f53b 4c68 523b
00000280: 100e 68ba 90eb b23a 33f4 063c b4c6 383b
00000290: 71d6 b4bb b863 70bb c782 203c 066a 813b
000002a0: c28a 8b3b c610 d43b 0018 b8b7 a2d0 c13b
000002b0: fce7 78bb 92da ab3b 41b3 023c a83a 98ba
000002c0: 10cf 1cba f523 203c 4089 3fba 3cb8 3fbb
000002d0: 96ac ea3b a64b 5abb f135 01bc b0ba 7b3b
000002e0: 0751 0fbc 18e1 94ba 00cc 20b7 1f7c d7bb
000002f0: 3b69 163c 4095 3e3a 4b9e 1abc 4be4 153c
00000300: 2064 a8b9 ae0b c43b 8813 8d3a 20af e539
00000310: 6843 a83a 1096 143b 960a f23b 9725 0a3c
00000320: e063 58bb 8006 eaba 3403 05bb d9ef 27bc
00000330: 1434 133b ad61 003c 1618 bf3b 00a7 c838
00000340: 7286 ba3b 735d d0bb 447c a2bb 7fe3 b2bb
00000350: 206d c639 24f4 7abb 68c3 dbba 823a 06bc
00000360: 3698 c7bb bdf6 27bc 163d b23b b7ac 2b3c
00000370: 4d4b 2c3c d4f8 3abb 58af af3a b971 a6bb
00000380: a0c6 e93a 00ca 16b9 7f6d 98bb be5f c83b
00000390: 406d 443a 88e8 1fbb 5668 d1bb 3b0d 97bb
000003a0: c544 93bb 468f e83b d821 f8bb 75c5 1bbc
000003b0: 6efa c0bb 83e2 1e3c c3c3 23bc 7ef9 e53b
000003c0: 2c6a 483b 1e6f b33b c044 04bc 2057 9a3b
000003d0: 501d 29bc 50d0 463b 1e5a 6bbb 1edf 18bc
000003e0: 6ccf 5d3b 3f16 14bc 600c edba d6f7 dd3b
000003f0: a01c 2bba 3619 f23b a0fa e5bb 70ec 493a
