Model/models/normal_100.pth (torch, 47524 bytes, 7 tensors)

conv1.weight f4 [10, 3, 3, 3]
000000 08 83 ff bd 00 c5 b0 bc d6 6d 58 3d af aa cd bd
       -0.12476164 -0.021578312 0.052839123 -0.10042321
000010 a5 4e ff 3d 97 08 04 be 5f 73 0d 3d e2 e9 48 3e
       0.12466172 -0.12893902 0.034533855 0.19620469
000020 19 3d 3f 3e f5 65 77 be a7 95 f8 bd 82 93 15 3d
       0.1867565 -0.24159987 -0.12137919 0.036517628
000030 16 eb 03 be 39 4d 94 bd 2a c0 33 be 75 cc 2b 3e
       -0.12882647 -0.072412916 -0.17553774 0.16777213
000040 80 84 ea 3d 5a a3 33 3e e4 97 50 be 5d 96 2d be
       0.114510536 0.17542782 -0.20370442 -0.1695189
000050 1a 34 e1 3d 3e 3a 48 be a4 ec 28 3e db af 21 3e
       0.10996266 -0.19553468 0.16496521 0.1578974
000060 64 e9 df bb 8a 6f 0d 3e 3f 69 10 bc bb 48 0c 3e
       -0.0068332423 0.1381208 -0.008814155 0.1369962
000070 8a 16 d8 3c 5c ca 46 3d 39 b0 8a bd cf 46 94 3c
       0.026377935 0.04853283 -0.06771893 0.01810017
000080 dc d6 2a bc 61 47 c7 3c cb b2 9b bd 12 0d fb 3d
       -0.010427203 0.024326028 -0.076024614 0.12258352
000090 29 4e 4c be 3a 0e 37 bc e5 69 1e be 5f c5 ef bd
       -0.1995169 -0.0111728255 -0.15470083 -0.117075674
0000a0 7d 9d 35 be ab 24 6c 3d ee 83 08 be fa 76 5c 3e
       -0.17735858 0.057652157 -0.13331577 0.21529761
0000b0 86 c9 7c 3e 84 83 a1 bc fc ab 7f bd 1a 19 eb 3d
       0.2468625 -0.019716032 -0.062419876 0.11479397
0000c0 85 e4 10 3e 00 e5 a0 bc 9e cf c7 3e 3e 87 b8 3e
       0.14149673 -0.019640446 0.39025587 0.36040682
0000d0 4c d6 88 3e ab d8 62 3e bd 7d 9f bd e1 ed 63 3d
       0.26725996 0.22152965 -0.077876545 0.05564678
0000e0 96 c0 ae 3d 86 05 27 3e 32 e7 20 3e 68 c8 24 3e
       0.085328266 0.16310701 0.15713194 0.16092074
0000f0 4c 70 1f bb 61 a1 eb bc be a1 c4 3d 78 d8 02 3d
       -0.0024328409 -0.028763475 0.096011624 0.031944722
000100 ac 5d 9f bd c1 05 63 3d 8d fb f5 bd 9e fc aa bc
       -0.07781538 0.05542541 -0.1201087 -0.02087241
000110 58 ab 1a be 91 d0 7e bc b6 4f b6 bc c0 41 bf 3d
       -0.15104425 -0.015552656 -0.022254806 0.09338713
000120 5b 12 a4 bd 42 41 1f be 79 b4 a9 3d ea ba 68 be
       -0.080113135 -0.15552238 0.082863756 -0.22727552
000130 68 0e 43 3b 25 85 6d be 70 fa 42 3d 5b 9b 82 bd
       0.0029763225 -0.23195322 0.047602117 -0.06377288
000140 87 92 6a be d0 66 21 3e 02 88 0c 3e 72 ee 15 bd
       -0.22907458 0.15761876 0.13723758 -0.036604352
000150 f4 27 ec 3d b0 0e 2a be f6 87 4e 3a 88 3f 8d 3d
       0.11531058 -0.16607165 0.0007878536 0.06896883
000160 4c 9c 12 be 42 1c 34 3e 7f 2e b1 3d 7e 85 d6 3d
       -0.14317435 0.17588905 0.086514466 0.1047468
000170 59 11 7e 3e 45 f5 c3 3c d9 5d ef bb e3 97 17 3e
       0.24811305 0.023920665 -0.0073048887 0.14804034
000180 f3 20 2b be 34 e7 37 bd 55 c0 49 3e d7 58 bd 3e
       -0.16711788 -0.044898227 0.19702275 0.36981842
000190 6c fa b1 3e 20 82 39 3e 25 b2 64 3e 17 3e d5 3e
       0.3476137 0.18116045 0.22333582 0.41648933
0001a0 30 97 bb 3e f5 1b 02 3d 16 fe bc 3e 29 f9 dd 3d
       0.36638784 0.031764943 0.36912602 0.10838539
0001b0 e0 76 35 be a1 82 1f be 53 a4 2b bc 29 95 10 3d
       -0.17721128 -0.15577175 -0.01047619 0.0352985
0001c0 5f 2f 12 be 03 1e 30 be 70 f8 a3 bd 91 6b 0b bc
       -0.14275883 -0.17198949 -0.0800637 -0.008509533
0001d0 27 5f 94 3d a9 2d 6d bd 83 0f 14 be 0a 68 c0 bd
       0.07244711 -0.057904873 -0.14459042 -0.09394844
0001e0 f1 70 be bd 22 a8 8e bd 88 a9 af 3d 7f 1b bd bc
       -0.092988856 -0.069656625 0.085772574 -0.0230844
0001f0 5f f8 b8 bc 34 ab 48 bd 9f 0c 7c 3d dd bb 9d 3d
       -0.02257937 -0.048991397 0.061535474 0.07701848
000200 cb e4 75 bb a0 06 22 3e f6 f4 2d be 66 7e f6 bd
       -0.0037520404 0.1582284 -0.16987976 -0.12035827
000210 78 97 1e be 93 bf 99 3d 70 4c 99 3d 06 cd 64 3d
       -0.15487468 0.07507243 0.074852824 0.055859588
000220 21 27 26 3e 22 2e ba 3d d5 32 12 3e 26 64 26 be
       0.16225864 0.090908304 0.14277203 -0.16249141
000230 01 ec 12 be 39 f3 9d bc 49 30 f7 3c c1 a9 05 3e
       -0.14347841 -0.019281017 0.030174391 0.13053037
000240 00 be 4e 3e 6a 33 b7 3d 1e 09 dd 3d b0 6d 78 bd
       0.20189667 0.08945353 0.107927546 -0.06065148
000250 25 72 13 be df 5d 77 be 01 63 a3 bc db a6 68 be
       -0.14399011 -0.24156903 -0.01994467 -0.227199
000260 80 4d 9d ba 20 5a 7c bd 55 2f 7d 3c 6f 9f e5 bd
       -0.0012001246 -0.061609387 0.015453179 -0.1121205
000270 48 ff f0 3d 3a a7 16 3d c6 7b bd 3c 54 e4 60 bd
       0.11767441 0.036780573 0.023130309 -0.05490525
000280 98 10 85 be 9c 12 1c 3c 5f 52 c4 3d c8 3d 8d 3d
       -0.25989223 0.009525921 0.095860235 0.068965495
000290 66 fb 4c 3d a7 86 22 3d f1 59 0f 3e 9e d3 d7 3d
       0.05004444 0.039679196 0.13999154 0.1053841
0002a0 c1 6a 19 3e 1a 56 20 3c e2 5e 19 3e 20 87 b2 3c
       0.1498213 0.009786153 0.14977601 0.021792948
0002b0 4f 5a 81 3d 30 ba 92 3d 4e fe 7a 3e 2e 5e 68 3e
       0.06316053 0.07164419 0.24511072 0.22692177
0002c0 8e 65 db 3d 57 c5 22 3e 1f bc e6 3c 03 af a0 3e
       0.107127294 0.15895592 0.028165875 0.31383523
0002d0 9d de 98 3e 47 d8 a0 3e ad d5 4c 3e 9e cd c5 3e
       0.2985734 0.31415007 0.20003386 0.38633436
0002e0 8a 99 cf 3e b1 19 74 3e 1b 4a 98 3e bd 8f f3 3e
       0.40546829 0.23837925 0.29744038 0.475706
0002f0 15 29 92 3e a4 f9 7f 3e 59 25 d5 3d 99 6b 0d bd
       0.28546968 0.24997574 0.10407514 -0.03452644
000300 10 63 77 bd 5b 8f 88 bd 7f f7 24 3c df 68 bf bd
       -0.060397208 -0.06667968 0.010068773 -0.093461744
000310 02 ec 23 be 13 1e 9a bc 6b 7a 90 3d db 7c 69 3e
       -0.16007999 -0.018813169 0.070545994 0.22801535
000320 40 77 12 bd c1 d3 a9 3d e1 cf e1 3d e3 b2 13 3e
       -0.035758257 0.08292342 0.11025978 0.14423709
000330 7c eb bb bc 87 a0 17 3e 0c d6 30 be 2d 4b 14 3e
       -0.022939436 0.1480733 -0.17269152 0.14481802
000340 c4 82 8c 3c a7 35 9a 3d 84 d6 3c be c6 6b 83 be
       0.017152198 0.075297646 -0.18441206 -0.25668162
000350 d0 44 e0 bd 18 7a 82 be 03 5b bc bd 05 08 9d be
       -0.10950625 -0.25483775 -0.091970466 -0.3067018
000360 b1 1f 0a be 1c fd 94 3d ed 96 0c 3e b0 2d 59 bd
       -0.13488652 0.07274839 0.13729449 -0.053022087
000370 27 34 49 3d 68 7a f9 bd 2f a8 46 be d8 b0 81 3d
       0.049122002 -0.1218155 -0.19400094 0.063325584
000380 34 d2 43 3e 9c 5b bd 3d 2f 8e 33 be ae d5 16 3d
       0.19123155 0.09245989 -0.17534707 0.036824875
000390 77 b7 90 3c 80 33 49 bd 8e d4 ae bc 38 14 05 be
       0.017665608 -0.04912138 -0.021341588 -0.12995994
0003a0 11 f7 92 3d 30 a1 60 3e b1 bb 25 be a5 4a 0d 3e
       0.071760304 0.21936488 -0.1618488 0.13798006
0003b0 a2 51 8d 3d e1 5c c2 bd ea 2e 0b 3e a6 3e 19 bd
       0.06900336 -0.094903715 0.13592115 -0.03741326
0003c0 59 e4 14 bd 25 31 be 3d 31 53 39 3e e9 dd 9d bd
       -0.03635058 0.09286717 0.18098141 -0.07708342
0003d0 a6 3f 8e 3d 16 e6 82 3d 97 5a cc bd 26 8e 30 3e
       0.06945734 0.06391542 -0.09978216 0.17241725
0003e0 cf 4e ea bd ad 58 9e bd 59 17 ff bd c9 ca f0 3d
       -0.11440813 -0.07731757 -0.12455625 0.11757428
0003f0 50 be b8 3d 1c 44 15 be 19 7b 3f be e4 0e 04 be
       0.09020674 -0.14576763 -0.18699302 -0.12896305

conv1.bias f4 [10]
000000 02 8f cb 3c ae d8 16 bd ae 9c b9 3d 83 dd 82 bd
       0.024848465 -0.036827736 0.090630874 -0.06389906
000010 8d 61 57 bd bb 6a 2a 3e f3 37 dc 3d b3 91 8a 3e
       -0.052583266 0.16642277 0.10752859 0.27064285
000020 c5 02 80 bd 8e dc 52 bd
       -0.06250528 -0.05147987

conv2.weight f4 [10, 10, 3, 3]
000000 e6 83 66 3e 84 e1 20 3e 3b cd 03 3e 28 44 dc 3b
       0.22511253 0.15711027 0.12871258 0.006721992
000010 eb 14 09 3e ac 0a 10 bd 1c e7 0f bd 0d cb 98 3c
       0.13386886 -0.035166427 -0.035132512 0.01865151
000020 da 1a 53 be 82 bd b7 3e 47 55 a7 3e 70 23 2b 3e
       -0.20615712 0.3588677 0.3268225 0.16712737
000030 bc f5 ae 3e 24 0c 4a 3e 5f 20 27 3e f7 eb 5c 3d
       0.34171855 0.19731194 0.16320942 0.05393597
000040 4b 70 b8 3d 94 13 84 3d b4 c2 27 be 72 e2 8c bd
       0.09005793 0.06449047 -0.16382867 -0.068791285
000050 db a5 c6 bd a0 2a 02 be 73 2c a3 bd ba 44 04 be
       -0.09699603 -0.12711573 -0.079674624 -0.12916842
000060 1f a2 a1 bd d3 40 17 be ed 66 bd bd 7f e6 40 3e
       -0.0789225 -0.14770822 -0.09248147 0.18837927
000070 de b7 59 3e 83 5d 2d bc bd 88 6a 3e 4d 85 c2 3e
       0.21261546 -0.010581377 0.22903724 0.37992325
000080 e3 45 62 3e 47 69 b4 3e 5e 01 69 3e 18 b6 a2 3e
       0.22096972 0.3523657 0.22754428 0.31779552
000090 44 28 b4 3c 33 3c 96 3d ba 47 50 3d 29 ae 30 bb
       0.021991856 0.07335701 0.050849654 -0.0026959276
0000a0 24 76 8a bd 22 41 88 bd b2 3d 49 bd 70 9f cc 3b
       -0.06760815 -0.06653048 -0.049131103 0.0062445924
0000b0 b4 77 9a 3d ba 46 0a bd 84 cf d1 bd d1 8f a9 bd
       0.07542363 -0.033758856 -0.102446586 -0.08279384
0000c0 b0 44 31 be 60 98 03 be 98 d9 00 bd ae 36 61 bd
       -0.17311358 -0.12851095 -0.031457514 -0.054983787
0000d0 e3 6b 89 3d d5 02 5f bd 08 44 07 3c 23 d7 38 3e
       0.06710031 -0.05444606 0.008255966 0.18050818
0000e0 f5 44 94 3d be b6 95 3d 3f 9b 0f 3e a1 7e 55 3e
       0.07239715 0.07310246 0.14024065 0.20849086
0000f0 ed 83 0d 3e 72 78 eb 3d 41 04 d1 3c be f8 97 be
       0.13819857 0.114975825 0.025514724 -0.29681963
000100 52 32 c0 be 79 df 79 be ab ed 07 be f6 6f 1a be
       -0.3753839 -0.24401654 -0.13274257 -0.15081772
000110 0a 7f 36 be 0e b6 e1 bd 83 17 da bd b0 f2 ed bd
       -0.17821899 -0.11021052 -0.10649016 -0.116185546
000120 87 11 6e 3e e7 9e 54 3e df b1 98 3d da a2 c8 3e
       0.23248874 0.20763741 0.07455801 0.39186746
000130 7c c3 73 3e 87 06 89 bd 3d b5 af 3e 2d f6 56 3d
       0.2380504 -0.06690698 0.3431796 0.052480865
000140 75 8d aa bd 28 38 85 3d 3e cf d2 3d c8 e7 a0 3d
       -0.08327762 0.065048516 0.102934346 0.07856709
000150 2a b2 88 bc 33 85 62 bc a6 ae 8c bd ef 45 28 bd
       -0.016686518 -0.0138257025 -0.06869249 -0.04108232
000160 53 d6 92 bb a4 2e 65 3d fe 13 da bd 34 a0 e5 bc
       -0.004481116 0.055952683 -0.106483445 -0.028030492
000170 c1 d7 b8 3b 9c 31 56 3c 2c 78 88 3d fe f4 d2 bd
       0.0056409542 0.013073351 0.06663546 -0.10300635
000180 0c 2e ae ba e6 5a 9b bd ff 03 46 bd a4 28 8e 3d
       -0.001328887 -0.07585697 -0.048343655 0.06941345
000190 6e 27 95 ba 08 48 59 3d d1 9c 09 3d 1f 7b ca 3b
       -0.0011379549 0.05304721 0.033596817 0.006179228
0001a0 18 94 cc bc 08 6f f1 bc 1a ca f5 bd 4a 13 13 3c
       -0.02497296 -0.02947189 -0.120014384 0.008976767
0001b0 af 8b 7d bd c3 62 a4 3d ef 9f fa bc ba b9 95 bd
       -0.06190079 0.0802665 -0.03059384 -0.07310815
0001c0 42 ce b0 bc 48 5d 81 3d af 13 cb bd 21 e2 c5 bd
       -0.021582726 0.0631662 -0.09915864 -0.09662271
0001d0 d5 bf 9c bc 99 97 c6 bd 1a 2f 9b bd 9c 87 b5 3d
       -0.019134441 -0.09696884 -0.07577343 0.08863756
0001e0 08 89 4b 3d ca 47 97 bd 2c 0a 94 bd 33 5f 91 3b
       0.04969123 -0.073867396 -0.07228503 0.0044363975
0001f0 63 59 ad 3d 75 34 2a bc fa d4 65 3d 17 e2 d0 bd
       0.08464315 -0.010388483 0.056111313 -0.10199373
000200 ab c3 a1 bd 2e cf 39 bd 80 70 0b 3a a7 40 cc 3d
       -0.07898649 -0.045363598 0.0005319193 0.09973269
000210 74 75 ac 3c d2 1f 0a 3d 51 b0 8a 3d 0e a7 05 3d
       0.0210521 0.033721752 0.06771911 0.03263002
000220 53 43 80 bd 32 f7 a5 bc 0d 24 e7 bd 00 0a 90 bd
       -0.06262841 -0.020259473 -0.11286173 -0.07033157
000230 f7 d1 b0 3b 9f 6e 2d bd 9d 9a d3 3c 51 ab 23 3d
       0.0053961235 -0.042341825 0.025830561 0.039958302
000240 1f 89 c4 bc be de 90 bd 70 84 fb bd bf ef 9e bd
       -0.023991166 -0.07073735 -0.1228112 -0.07760572
000250 3a d0 f8 bd df 45 57 bd 01 c7 6e bd ba 47 a9 3d
       -0.12149091 -0.05255687 -0.058295254 0.08265634
000260 e6 37 eb 3c 19 44 b3 3c 86 ed a1 3d d7 3c 59 bc
       0.028713178 0.021883057 0.07906632 -0.013259134
000270 0a 9d b4 3d 0d ca b1 3c d0 17 8f bd 18 d2 7d 3d
       0.08819015 0.02170279 -0.06986964 0.06196794
000280 93 52 a1 bd da 70 8b 3d 77 b6 88 3d cb f6 69 bd
       -0.07877078 0.06808634 0.066754274 -0.057120126
000290 0e b1 d4 bd 51 d1 43 3c da 6f 66 bd b7 7b d6 3d
       -0.10385333 0.01195176 -0.056259014 0.104728155
0002a0 7a e7 a7 bd 3e c8 71 3d 89 70 90 3d c6 ea 84 bd
       -0.081984475 0.059028856 0.070527144 -0.06490092
0002b0 a6 c2 8f bd 49 b3 d3 3d 60 82 6a 3b 7c 9a 57 bd
       -0.07019548 0.1033693 0.0035783276 -0.052637562
0002c0 ca ec ad bd c2 72 99 bd d0 b6 99 bd 7b eb bc bd
       -0.084924296 -0.074925914 -0.07505572 -0.09224602
0002d0 05 0f c5 3b c2 30 b7 bd d3 02 59 bd 18 bb 85 3a
       0.0060137534 -0.08944847 -0.05298121 0.0010202853
0002e0 c4 a3 75 bd 79 7b cd bd 61 05 98 bd fe ac 57 bd
       -0.059970632 -0.10033316 -0.07422901 -0.052655213
0002f0 63 43 96 bd 4c f8 5c bd 0a b0 91 bd 69 91 ab 3d
       -0.07337072 -0.05394773 -0.07113655 0.08377344
000300 43 14 54 bd 7f 69 49 3d bb 36 98 3d d8 22 90 bd
       -0.051777136 0.049172875 0.07432314 -0.07037896
000310 fe 56 f0 bd 54 33 e8 bc 3a 7b d3 3d 01 d3 41 3d
       -0.117353424 -0.028344788 0.10326238 0.04732037
000320 b8 7d 60 bd c0 6e ea 3c 80 e7 8a 3d 73 bf ba 3d
       -0.054807395 0.028617263 0.06782436 0.09118547
000330 aa 3a d7 bc 55 29 90 bc 06 99 bd bd e9 00 26 bd
       -0.02627309 -0.017597834 -0.092577025 -0.04052821
000340 44 4d 6e 3d 46 4d 93 3d 37 b9 05 bd aa 68 1f 3d
       0.058179155 0.07192473 -0.032647338 0.038918175
000350 6f de b1 bd 31 a9 74 bc 1f e5 b5 bd 53 07 05 3c
       -0.08685004 -0.0149329165 -0.08881592 0.008119422
000360 ce 15 1e bd 46 66 96 bd 86 10 d1 bd 84 97 a0 bd
       -0.038595013 -0.07343726 -0.1020823 -0.07841399
000370 02 6f 5d 3d 60 9f ba bb 55 34 cf 3d 82 00 22 bd
       0.054060943 -0.0056952685 0.101174034 -0.039551266
000380 1f 7d 94 bd 18 6c b9 bd 61 0a 24 3d 63 fa 96 3d
       -0.072504275 -0.0905382 0.04004896 0.07371976
000390 9d 5f c5 bd b3 d5 7f 3b 33 c8 8f bd 6e 5b 03 bd
       -0.096373774 0.0039037287 -0.07020607 -0.032069616
0003a0 2d af 7b bd ff 6d b0 3d 53 85 b4 bd 37 d6 25 3d
       -0.061446358 0.0861473 -0.08814492 0.040487494
0003b0 fc a9 67 3c 8d 4b 92 3d 5f 69 9e bc 60 c6 32 3d
       0.0141396485 0.071433164 -0.019337354 0.043646216
0003c0 97 8c 4c bd f9 9d c4 bd 5b eb 7a bd d4 64 a1 bd
       -0.049938764 -0.096004434 -0.06125961 -0.078805596
0003d0 4d f1 45 bc 87 1f d3 3d c8 f6 a9 bd 4c 1a a7 3d
       -0.012081456 0.10308748 -0.08299023 0.081593126
0003e0 9c fc 78 bd 3c ae c4 3c bd ae 16 3c e2 c1 91 3d
       -0.060787782 0.024008863 0.009196934 0.07117058
0003f0 19 57 b8 3b 5b 3a d2 3d 51 0d 52 3d fc c4 8b 3d
       0.005625617 0.10265037 0.05128223 0.06824681

conv2.bias f4 [10]
000000 3a d9 47 3c bb d7 ae bd 92 bf c7 bd 20 bb 9e bc
       0.012197787 -0.08537241 -0.09753336 -0.019376338
000010 d6 69 75 3c 8b d7 d1 bd 7c 6a 49 3d ba 08 2e 3e
       0.014978847 -0.1024619 0.049173817 0.16995516
000020 06 cc 80 bc f8 3b a4 bd
       -0.015722286 -0.08019251

conv3.weight f4 [10, 10, 3, 3]
000000 3c 7b c2 3d 5f e3 61 bd 87 d0 80 bc 21 32 a5 3d
       0.09496161 -0.05514848 -0.015724434 0.08066202
000010 ca 5b d6 3a 33 4d 7a 3d 18 7f e0 3d ea d7 c9 3b
       0.001635426 0.06110878 0.10961741 0.006159772
000020 0a 59 cf 3d e5 35 53 3d fb 64 44 bd c3 16 d8 bc
       0.10124405 0.05156507 -0.047947865 -0.026378041
000030 ff 2f 95 3d 5f 51 e8 3c db 14 11 bd dd d4 68 bd
       0.07284545 0.028359113 -0.03542028 -0.056843627
000040 2e d3 11 bc cb e0 81 3d 56 a2 53 3b 17 6b 03 bd
       -0.008900447 0.06341704 0.0032292805 -0.03208455
000050 32 47 53 bd 07 96 f1 3c 2b ce 99 3d f3 e7 b2 bd
       -0.05158157 0.029490484 0.075100265 -0.08735647
000060 5c 79 85 3d 88 46 1b 3d 0d 6b a7 bd f0 03 23 3e
       0.06517288 0.03790906 -0.08174715 0.15919471
000070 42 60 33 3d ef 6a 14 3e 8b 32 8f 3d 9d ec 26 bd
       0.04379297 0.14493917 0.06992062 -0.040752996
000080 75 51 aa 3d 24 02 c1 3c 2a 37 96 3d 1c d7 fc 3d
       0.08316318 0.023560591 0.073347405 0.12345716
000090 06 0b 9a 3d 61 54 c6 3c 2d 81 55 3d fc bc 6d 3d
       0.07521634 0.024210157 0.052125145 0.058041558
0000a0 7d be 3b bd c3 58 17 3d ab 8d 14 be 41 03 ea bd
       -0.04583596 0.036949884 -0.14507167 -0.11426402
0000b0 e5 d9 d0 bd 19 99 a9 3d 5a 09 9c bd 44 a5 76 bd
       -0.1019781 0.08281154 -0.07618971 -0.060216203
0000c0 10 5d da 3b 4d 18 ac 3d ea 70 80 bd 78 87 25 bd
       0.006663926 0.084030725 -0.06271537 -0.040412396
0000d0 18 02 9d bd 5a bc 8d bd 16 cb c5 3d 56 4d 00 3e
       -0.07666415 -0.06920691 0.09657876 0.12529501
0000e0 da ec c0 3d 07 8d 99 bd f8 34 96 3d 92 49 dc 3d
       0.09420176 -0.07497602 0.07334322 0.1075622
0000f0 f4 1a a7 3d 4a a8 9f 3c d4 60 62 bc 96 dd 31 bd
       0.08159438 0.019489426 -0.013817031 -0.04342421
000100 42 40 7d bd ea 06 19 be 4c b3 68 be 88 ae 00 be
       -0.06182886 -0.14944044 -0.22724646 -0.12566578
000110 65 97 52 be 3a e4 0f be 51 d0 bc bd 92 7b cc bd
       -0.20565565 -0.14051905 -0.09219421 -0.09984507
000120 8e 47 4b 3d e0 60 8b bd 0d f2 e4 bc d2 fd 04 3d
       0.049628787 -0.06805587 -0.02794745 0.032468624
000130 10 a8 b0 bd 98 99 ea bb 75 32 47 be 0f fa 63 bc
       -0.086258054 -0.007159423 -0.19452842 -0.013914599
000140 be 33 bb bd 78 73 2f 3d d2 c5 1a bd cb 76 12 bd
       -0.091407284 0.04283473 -0.037786312 -0.03575782
000150 cb e0 cf 3c 13 01 ca bd c1 f3 16 3d b6 33 dd bd
       0.025375744 -0.09863486 0.036853556 -0.10800879
000160 0b 49 f5 bd 15 48 2d bd 41 0a 13 3d be 32 0b 3d
       -0.119768225 -0.04230507 0.03589845 0.03398394
000170 e8 44 b8 bd 01 32 fe bc 0f 23 3a 3d c2 26 4e bd
       -0.08997518 -0.031029703 0.04544359 -0.05032993
000180 22 ca 77 bd 02 53 8a 3d 15 95 ce 3a dc 1c bb 3c
       -0.060495503 0.06754114 0.0015760983 0.02284091
000190 a2 e4 4f bd d9 c6 7e bd e6 a3 12 bd 86 0d 0a bd
       -0.05075515 -0.062201355 -0.035800837 -0.033704303
0001a0 56 b0 5b 3d 2d 9b 92 3d 3b 4c c8 3d da cd cf bd
       0.053634964 0.07158504 0.09780165 -0.10146685
0001b0 38 31 a0 3d c9 22 18 3c e4 e7 0d be e6 59 2f bd
       0.07821888 0.009285637 -0.1385799 -0.042810343
0001c0 6f 5a 61 3d 75 a3 99 bd a1 8b 98 bd f8 0c d2 3d
       0.055017885 -0.0750188 -0.07448507 0.1025638
0001d0 a3 54 d7 3c 96 c0 e8 bd 01 f4 a6 bd c6 96 12 3c
       0.026285475 -0.11364858 -0.08152009 0.00894708
0001e0 3c 70 75 bd 6d 56 04 bd e7 a0 90 3e e5 8b 77 3e
       -0.05992149 -0.032308985 0.2824776 0.2417446
0001f0 97 f3 a0 3e 5f 97 b3 3e ed fc 73 bd 5e e5 30 bc
       0.31435844 0.35076424 -0.05956738 -0.010796873
000200 f9 af 02 3d b7 85 ee 3b 01 17 a4 bd fd 56 65 3d
       0.0319061 0.0072791236 -0.080122 0.05599116
000210 c4 e7 f1 3c 32 85 cb 3c 55 1a b0 3b 6d 99 4d bd
       0.02952946 0.024843786 0.005374233 -0.050195146
000220 fe b4 95 bd 61 af b6 3d d0 dd 4e bc 2a ae 23 3d
       -0.07309912 0.089201696 -0.012626126 0.039961018
000230 a1 95 af 3d 48 b5 91 bc 2d 58 97 3d 14 c5 4c bd
       0.08573461 -0.017786637 0.07389865 -0.049992636
000240 70 3b ad bd c9 f3 40 bd dc dd 41 bd 0d 7d 9e bd
       -0.084586024 -0.04710749 -0.047330722 -0.07738695
000250 b4 43 1d 3d 3a cc 5e bd 3d 58 84 3c 46 b7 b3 bd
       0.038394645 -0.054393984 0.016155357 -0.08775191
000260 a5 13 81 bd a7 55 80 bd 21 00 c6 bd 1c 4d cc bc
       -0.06302575 -0.06266337 -0.09667993 -0.024939112
000270 c5 f0 a0 3c 1b 23 82 bd 49 4d df 3d 56 1e ee bc
       0.019646058 -0.06354352 0.10903413 -0.0290672
000280 bb 6c b3 3d 11 54 74 bd 94 d4 8e be 0c 2b ea bd
       0.08760973 -0.059650484 -0.2789656 -0.11433992
000290 8e 37 33 be 50 97 6b bd b6 83 a1 bd cb 36 a4 3d
       -0.17501661 -0.05751735 -0.0788645 0.080182634
0002a0 de 7c ed 3d 75 97 05 3e 9f c8 55 3e 25 61 d2 3c
       0.11596082 0.13046058 0.20877312 0.025681088
0002b0 fb 6b 91 bd ac 00 46 3b a5 ca 32 bd 26 24 94 3d
       -0.07100674 0.0030212803 -0.043650288 0.07233457
0002c0 ea 3b c1 bd a9 13 69 bd 88 37 96 bd 98 cd d1 3d
       -0.09435256 -0.056903515 -0.073348105 0.10244292
0002d0 8d 34 00 3e 00 4a 80 3d 7a f7 56 3b 10 9e 6c bd
       0.12520047 0.062641144 0.0032801316 -0.057767928
0002e0 3a 80 ab 3b 38 4c 20 3d 6b fb 9d 3c 0d f8 a9 bd
       0.0052337917 0.039135188 0.019284924 -0.08299265
0002f0 42 a6 b4 bc 7a 70 c8 3d 9c 40 0f 3c 6c 38 7e 3c
       -0.022051934 0.09787078 0.008743431 0.015516382
000300 04 b3 d8 3c ce 54 90 bd 81 c4 3a 3c 6a a1 00 3d
       0.026452549 -0.07047425 0.011399389 0.031403936
000310 0e 05 65 bd a5 13 ac 3d 42 59 5b 3d ac c6 7f bd
       -0.055913024 0.084021844 0.05355192 -0.062445328
000320 d4 ee 09 3e f8 d6 da bd 12 15 be bd 67 cf 29 3d
       0.13470012 -0.10685533 -0.092813626 0.04145756
000330 15 83 1c bd 48 28 87 bd 7b 47 74 bd 41 c3 d2 bc
       -0.038210947 -0.0659948 -0.05963848 -0.02572787
000340 ac ce 91 3c ec bc c9 3b 38 d1 e9 bd 92 ad 4e bd
       0.017798744 0.0061565544 -0.114168584 -0.0504585
000350 db c7 a2 bd 7f 30 43 3d c9 3d 96 3d 00 9f da bb
       -0.07948276 0.04765367 0.07336003 -0.0066717863
000360 fc 6f d6 3d a8 ce ac 3d dc 61 c7 bc 8c e7 bf 3d
       0.10470578 0.08437854 -0.024338655 0.09370336
000370 b1 71 0d bc 79 cd 79 3c a0 d3 96 bc 7c 98 16 bd
       -0.008633063 0.015246742 -0.018411458 -0.036766514
000380 e9 7d 8d 3d b8 d7 5d 3c 91 af c2 3d 66 ce 69 3d
       0.06908781 0.013540201 0.09506143 0.057081603
000390 3e 26 ba bd 42 8c 8c bd a5 64 43 bd 96 5d ad bd
       -0.09089325 -0.068626896 -0.047703404 -0.08465116
0003a0 fe 38 14 3d f1 1f c7 bd dc 54 c2 3d 29 87 a4 bb
       0.036187164 -0.09722889 0.09488842 -0.005020995
0003b0 d0 96 13 bd 5c b5 47 bd 1c 79 0d bd 32 e7 99 3d
       -0.036032498 -0.048756942 -0.034539327 0.075148
0003c0 21 d1 1c be 52 ca 0c be d9 83 ff bd 71 64 71 bd
       -0.15314151 -0.13749054 -0.1247632 -0.05893368
0003d0 4a 3b 88 bd 5b 49 40 bd 13 7a 81 3d e9 18 ae bd
       -0.066519335 -0.046944957 0.06322112 -0.08500845
0003e0 14 9b fc bd 2c d6 31 bc 88 1c 0a bd fd 29 76 3a
       -0.12334266 -0.010854285 -0.033718616 0.0009390412
0003f0 4e 76 95 3c ca 7a 9f 3d 92 5b c6 3d ec 39 2a 3d
       0.018244889 0.07787092 0.096854344 0.041559145

conv3.bias f4 [10]
000000 e6 76 c8 bd c7 ed 9a bd 7e 10 66 bc 12 31 ad bd
       -0.09788303 -0.07564884 -0.014042018 -0.08456625
000010 3c ef 07 3e 73 29 b7 bd c1 4d 09 bd 15 f7 b4 bd
       0.13274854 -0.08943453 -0.033521418 -0.0883619
000020 7d 05 e2 bc 39 8c 1b 3e
       -0.027590508 0.1519021

fc1.weight f4 [1, 9000]
000000 8e 38 69 3d b2 a2 43 3d 55 ce 3c 3d 1d 4d 6b 3d
       0.0569387 0.04776258 0.04609521 0.057446588
000010 03 8d 4e 3d b5 44 19 3d 7b 92 e4 3c 6b 48 bb bc
       0.050427448 0.03741904 0.027901879 -0.02286168
000020 d1 cc e9 3a c1 9b f4 3c 30 eb 55 3d ad 37 45 3c
       0.0017837529 0.029859426 0.052226245 0.0120372
000030 35 60 cf 3b 43 3f fb 3c 71 d8 9b 3c eb 92 d6 3c
       0.0063286074 0.030669814 0.019024106 0.026193103
000040 dd 5b b5 3d b7 31 01 3e c9 02 ce 3d 81 8d 27 3d
       0.08855412 0.12616621 0.10059125 0.040906433
000050 4f ba 34 3c ff 75 92 bc d4 12 9e bc 1f c8 13 bc
       0.011030748 -0.01787853 -0.019296087 -0.009019881
000060 9d c3 5a bc 5f 12 87 3b cf 62 e7 3c 12 52 fb bb
       -0.013352302 0.004122063 0.028245358 -0.0076696957
000070 f4 d9 28 bd 04 85 1b bd a1 58 f3 3c ad 58 cb 3c
       -0.04122348 -0.03796865 0.029705347 0.024822557
000080 0f b8 e6 3b af 7d 8b 3c c2 8c 17 bd 90 37 9c bb
       0.0070409845 0.017027704 -0.03699947 -0.0047673658
000090 be db 45 bc f4 73 b4 bc ef e7 59 3b 69 6c 1c 3d
       -0.012076316 -0.022027947 0.0033249815 0.038189325
0000a0 94 5b 28 3d 2a 18 91 3a 4c fd 4e 3b 33 ed 11 3b
       0.04110296 0.0011069824 0.0031584082 0.0022266626
0000b0 d7 42 04 3d b3 97 0d 3d ad 01 b7 3d 9a 1d b7 3d
       0.032290306 0.0345685 0.089358665 0.08941193
0000c0 41 8a c6 3d 36 34 41 3d 25 df d1 bb 2e 8f c7 bc
       0.096943386 0.047168933 -0.0064047747 -0.024360266
0000d0 81 73 2a bb c4 75 2a 3d 6c bf 49 3d 2c 45 48 3d
       -0.0026008787 0.041616216 0.04925482 0.048894092
0000e0 ce b7 66 3d 35 90 10 3d 0e bd 8d bb d3 45 1f bd
       0.056327634 0.035293777 -0.0043255156 -0.03888495
0000f0 14 4b 1d 3d b2 a3 bc bb 7a b8 70 bc d0 b6 00 bd
       0.03840168 -0.0057568187 -0.01469242 -0.031424344
000100 cb b7 19 bd 8f d1 f6 bc d6 ba 0e bc b7 d0 10 3d
       -0.037528794 -0.030129222 -0.008711537 0.035355296
000110 9d be e4 3c f9 e8 3e 3d 2f 24 82 3d fa 48 fd 3b
       0.027922923 0.0466089 0.06354558 0.0077296467
000120 11 20 de bc c0 7e 3e bd 80 5e eb bc 2f fa 6a 3c
       -0.0271149 -0.046507597 -0.028731585 0.014341875
000130 7a 07 20 3d bd 4f 0f 3d aa 44 24 3c af cf 24 bc
       0.03906963 0.034988154 0.010026136 -0.010059281
000140 c8 1b f2 ba b7 44 84 ba 74 9d a5 bb 41 3d dd 3c
       -0.0018471414 -0.0010091279 -0.0050541703 0.027006747
000150 68 35 03 3d eb 36 35 3c 3f 58 71 3d 05 fd 8c 3c
       0.032033354 0.011060457 0.05892205 0.017210493
000160 84 ce ca bc fb c7 00 bc dd ab 0d 3d 7f d4 f9 3c
       -0.024756677 -0.007860179 0.03458773 0.030496834
000170 9d 70 27 3c 06 0e 01 3d fb 34 60 bc 5a 25 b5 bc
       0.01021972 0.031507514 -0.0136845065 -0.022112537
000180 de c5 d3 bb bc 5c 1f 3a 21 f9 dd 3b 7c f9 29 3d
       -0.0064627966 0.0006079187 0.0067740832 0.041497692
000190 eb 19 0d 3d 51 3e 05 3d d0 ce b3 ba 3a d6 8d bc
       0.034448545 0.032530133 -0.0013718251 -0.017314065
0001a0 a7 ba 19 bc 95 de 0c 3d 65 35 0a 3d c5 30 10 3d
       -0.00938288 0.03439196 0.033742327 0.03520276
0001b0 1c bc f4 3c 32 d7 ab 3c 64 ff ec 3b bc 6c 4a 3c
       0.029874854 0.020976637 0.0072325934 0.012355026
0001c0 05 43 2e bc c8 36 eb b9 2d c0 23 3b 11 fc aa 3c
       -0.010636096 -0.00044863508 0.0024986372 0.020872148
0001d0 56 96 04 3d 07 b7 2e 3d 9b d1 b1 3c 8b ab df 3b
       0.032369934 0.042655017 0.021706393 0.0068258694
0001e0 75 1d 33 3d 41 f4 37 bc 97 45 c2 bb 42 3e 3d 3d
       0.043729264 -0.011227668 -0.005928706 0.04620195
0001f0 7f d7 e3 3c e4 76 85 3c 64 2a 1f 3c 25 8e 0a 3c
       0.027812717 0.016292043 0.009714697 0.008456741
000200 a0 82 d3 bb 18 19 a1 3c 0e b4 f5 3c c5 28 0a 3d
       -0.0064547807 0.019665286 0.029993083 0.033730287
000210 71 d9 b3 3a d9 90 5c 3c 71 7b 8c 3b 50 cd 15 3d
       0.0013721419 0.013462269 0.0042871763 0.036572754
000220 3c 61 bc 3c fa a6 fb 3c 90 fc 55 3d 73 8f a8 3d
       0.022995584 0.030719269 0.052242815 0.08230486
000230 47 7f 44 3d 9a 20 95 3c 09 29 9d bc 41 8d 41 bd
       0.047972944 0.018204022 -0.019184606 -0.04725385
000240 56 c6 1f bd ec 5d 95 bc f6 c7 58 3b 4e 24 f2 3c
       -0.039007507 -0.018233262 0.003307817 0.029558327
000250 39 7b e5 3c 2f a5 92 3c e4 0a 8e 3c 9c 9d f7 bc
       0.028012859 0.017901031 0.017339177 -0.030226521
000260 6d f7 b2 bc db 02 6e 3c 00 cb e0 3c af 64 92 3d
       -0.021846497 0.014527048 0.027440548 0.0714811
000270 0f 17 c1 3d e2 ba 92 3d e2 04 3b 3c a2 cf ba bb
       0.09428226 0.07164551 0.011414738 -0.0057010213
000280 2f fe 69 bc 34 ff 09 3c ff 95 b1 bc 23 23 a5 bb
       -0.0142817935 0.008422662 -0.021677969 -0.005039589
000290 40 d8 0f bc 6a 7d 45 3b 7d 95 5a 3c 6c 8c 0f 3d
       -0.008779585 0.0030134567 0.013341305 0.035046026
0002a0 f1 d8 2a 3d 86 7f 8b 3d b1 c4 3c 3c 29 fc 30 bd
       0.041710798 0.068114325 0.011521504 -0.04320923
0002b0 7f 8b 60 bd 23 01 06 bd c8 e7 6d bb 28 25 65 3c
       -0.054820534 -0.032715928 -0.0036301482 0.0139859095
0002c0 42 b4 25 39 9d 1a c8 3b b0 d0 8f 3c b5 28 31 3d
       0.00015802777 0.006106688 0.017555565 0.043251712
0002d0 85 59 9a bc 06 8d 72 bd 3e dd 21 bb 56 b1 a0 3c
       -0.018841514 -0.05921652 -0.002469852 0.01961581
0002e0 b8 3d 54 3d a8 66 e3 3d b6 ff d8 3d 90 5f 27 3d
       0.051816672 0.111035645 0.10595648 0.04086262
0002f0 96 9d c6 3b e7 3a 91 ba af 63 08 3b d0 25 97 3c
       0.006061266 -0.0011080176 0.002081137 0.018450648
000300 4b 3b 2b 3d 03 43 95 3b 26 a1 c0 bb 5d 97 80 3c
       0.041804593 0.0045551076 -0.0058785854 0.015697176
000310 e1 62 81 3d 71 e6 6d 3d 7b f7 4a 3d 9b 39 0e 3d
       0.06317688 0.058081094 0.049552422 0.034722906
000320 d1 c7 63 3c 36 dd 2f bb ac 37 01 bd cb 00 f6 bc
       0.01390262 -0.0026834733 -0.031547233 -0.030029675
000330 9e f1 1f bd ca cf ba 3b 4c 41 9e 3c d8 a0 b0 bc
       -0.039048783 0.00570104 0.019318245 -0.021561071
000340 f4 a7 09 bd a5 0c 03 bc 94 13 84 bb c8 7c 6d bd
       -0.03360744 -0.00799862 -0.004030654 -0.05798033
000350 38 ae 56 bd fb f7 04 bd 07 95 29 3c 3b 89 4f 3d
       -0.05241224 -0.032463055 0.010350472 0.050667983
000360 60 8e 87 3c 9b 1b 95 39 24 2d d7 bc b2 ac d5 bc
       0.016547382 0.00028440062 -0.026266642 -0.026083324
000370 d5 da ca 3c f3 25 83 3d 50 9e e7 3c 00 0f 44 bd
       0.02476255 0.064037226 0.028273731 -0.047865868
000380 e2 03 5c bd 20 79 e5 ba d9 64 e7 3c 43 e0 9e 3d
       -0.05371464 -0.0017507412 0.02824633 0.07757618
000390 d3 29 36 3d 96 32 f1 3b 38 8f 12 3d 01 4d 43 bb
       0.04447348 0.0073607666 0.035781115 -0.0029800537
0003a0 f9 94 a2 bc 5a 28 44 bc 1d 19 2b bd b6 e3 c2 bc
       -0.019846426 -0.011972511 -0.041771997 -0.023790222
0003b0 57 bc bb bc 41 50 76 bc 88 4f 94 bd cf df ad bd
       -0.022916956 -0.015033782 -0.07241732 -0.08489954
0003c0 7e 9e fb bc 39 66 e5 bc 50 84 6c bd 7a 8b a6 bc
       -0.030715223 -0.028002845 -0.05774337 -0.02033018
0003d0 d6 d1 39 3c 5e d3 d3 bb cd 4d ad bb 1b 29 31 3c
       0.011341533 -0.006464406 -0.0052888156 0.010813023
0003e0 0b 76 16 bb 83 a8 3c bc ff e2 d2 3b 56 ec 24 3d
       -0.0022958543 -0.011514786 0.0064357514 0.04026445
0003f0 cb d9 21 3d d6 9c 46 3c 8a b2 0d bd 38 16 79 bd
       0.039514344 0.012122354 -0.034594096 -0.060812205
